…
The number of inters: 37899
The sparsity of the dataset: 99.99202039826986%
Tue 09 Jan 2024 18:28:32 INFO 
====Testing====
sports
The number of users: 35598
Average actions of users: 1.1244732850160122
The number of items: 13738
Average actions of items: 2.9137429028970736
The number of inters: 40029
The sparsity of the dataset: 99.99181486908563%
Tue 09 Jan 2024 18:28:41 INFO 

=================================


Tue 09 Jan 2024 18:28:41 INFO =========1/8: Parameters:['hidden_dropout_prob', 'cic_temperature', 'query_num', 'seed']=(0.5, 0.5, 1, 999)=======
Tue 09 Jan 2024 18:28:42 INFO EM3(
  (user_embedding): Embedding(35598, 64)
  (item_id_embedding): Embedding(18357, 64)
  (image_embedding): Embedding(18357, 4096)
  (text_embedding): Embedding(18357, 384)
  (v_linear): Linear(in_features=4096, out_features=64, bias=True)
  (t_linear): Linear(in_features=384, out_features=64, bias=True)
  (fusion): FQFormer(
    (layers): ModuleList(
      (0): SelfattLayer(
        (self): BertAttention(
          (query): Linear(in_features=64, out_features=64, bias=True)
          (key): Linear(in_features=64, out_features=64, bias=True)
          (value): Linear(in_features=64, out_features=64, bias=True)
          (dropout): Dropout(p=0, inplace=False)
        )
        (output): BertAttOutput(
          (dense): Linear(in_features=64, out_features=64, bias=True)
          (LayerNorm): LayerNorm((64,), eps=1e-05, elementwise_affine=True)
          (dropout): Dropout(p=0.5, inplace=False)
        )
      )
    )
  )
  (mm_proj): Linear(in_features=64, out_features=64, bias=True)
  (cic_content_linear): Linear(in_features=64, out_features=64, bias=True)
  (cic_id_linear): Linear(in_features=64, out_features=64, bias=True)
)
Trainable parameters: 86008640
Tue 09 Jan 2024 18:28:51 INFO epoch 0 training [time: 8.81s, train loss: 58.5665]
Tue 09 Jan 2024 18:29:03 INFO epoch 0 evaluating [time: 6.26s, valid_score: 0.044500]
Tue 09 Jan 2024 18:29:03 INFO valid result: 
recall@5: 0.0164    recall@10: 0.0269    recall@20: 0.0445    recall@50: 0.0802    ndcg@5: 0.0108    ndcg@10: 0.0142    ndcg@20: 0.0186    ndcg@50: 0.0257    precision@5: 0.0035    precision@10: 0.0029    precision@20: 0.0024    precision@50: 0.0017    map@5: 0.0088    map@10: 0.0101    map@20: 0.0113    map@50: 0.0124    
…
Valid: recall@5: 0.0457    recall@10: 0.0715    recall@20: 0.1073    recall@50: 0.1716    ndcg@5: 0.0300    ndcg@10: 0.0383    ndcg@20: 0.0474    ndcg@50: 0.0602    precision@5: 0.0096    precision@10: 0.0075    precision@20: 0.0057    precision@50: 0.0036    map@5: 0.0244    map@10: 0.0278    map@20: 0.0302    map@50: 0.0322    ,
Test: recall@5: 0.0461    recall@10: 0.0712    recall@20: 0.1087    recall@50: 0.1772    ndcg@5: 0.0306    ndcg@10: 0.0388    ndcg@20: 0.0485    ndcg@50: 0.0624    precision@5: 0.0101    precision@10: 0.0078    precision@20: 0.0060    precision@50: 0.0040    map@5: 0.0248    map@10: 0.0281    map@20: 0.0307    map@50: 0.0329    



Tue 09 Jan 2024 19:39:05 INFO =========2/8: Parameters:['hidden_dropout_prob', 'cic_temperature', 'query_num', 'seed']=(0.5, 0.5, 2, 999)=======
Tue 09 Jan 2024 19:39:06 INFO EM3(
  (user_embedding): Embedding(35598, 64)
  (item_id_embedding): Embedding(18357, 64)
  (image_embedding): Embedding(18357, 4096)
  (text_embedding): Embedding(18357, 384)
  (v_linear): Linear(in_features=4096, out_features=64, bias=True)
  (t_linear): Linear(in_features=384, out_features=64, bias=True)
  (fusion): FQFormer(
    (layers): ModuleList(
      (0): SelfattLayer(
        (self): BertAttention(
          (query): Linear(in_features=64, out_features=64, bias=True)
          (key): Linear(in_features=64, out_features=64, bias=True)
          (value): Linear(in_features=64, out_features=64, bias=True)
          (dropout): Dropout(p=0, inplace=False)
        )
        (output): BertAttOutput(
          (dense): Linear(in_features=64, out_features=64, bias=True)
          (LayerNorm): LayerNorm((64,), eps=1e-05, elementwise_affine=True)
          (dropout): Dropout(p=0.5, inplace=False)
        )
      )
    )
  )
  (mm_proj): Linear(in_features=128, out_features=64, bias=True)
  (cic_content_linear): Linear(in_features=64, out_features=64, bias=True)
  (cic_id_linear): Linear(in_features=64, out_features=64, bias=True)
)
Trainable parameters: 86012800
Tue 09 Jan 2024 19:39:12 INFO epoch 0 training [time: 5.70s, train loss: 57.9896]
Tue 09 Jan 2024 19:39:25 INFO epoch 0 evaluating [time: 6.39s, valid_score: 0.044400]
Tue 09 Jan 2024 19:39:25 INFO valid result: 
recall@5: 0.0161    recall@10: 0.0266    recall@20: 0.0444    recall@50: 0.0796    ndcg@5: 0.0109    ndcg@10: 0.0143    ndcg@20: 0.0189    ndcg@50: 0.0259    precision@5: 0.0034    precision@10: 0.0028    precision@20: 0.0024    precision@50: 0.0017    map@5: 0.0091    map@10: 0.0104    map@20: 0.0117    map@50: 0.0127    
…
