…
The number of inters: 20559
The sparsity of the dataset: 99.98071694707788%
Tue 09 Jan 2024 18:26:00 INFO 
====Testing====
baby
The number of users: 19445
Average actions of users: 1.1150424273592183
The number of items: 5549
Average actions of items: 3.907370697422959
The number of inters: 21682
The sparsity of the dataset: 99.97990552482683%
Tue 09 Jan 2024 18:26:05 INFO 

=================================


Tue 09 Jan 2024 18:26:05 INFO =========1/8: Parameters:['hidden_dropout_prob', 'cic_temperature', 'query_num', 'seed']=(0.5, 0.5, 1, 999)=======
Tue 09 Jan 2024 18:26:06 INFO EM3(
  (user_embedding): Embedding(19445, 64)
  (item_id_embedding): Embedding(7050, 64)
  (image_embedding): Embedding(7050, 4096)
  (text_embedding): Embedding(7050, 384)
  (v_linear): Linear(in_features=4096, out_features=64, bias=True)
  (t_linear): Linear(in_features=384, out_features=64, bias=True)
  (fusion): FQFormer(
    (layers): ModuleList(
      (0): SelfattLayer(
        (self): BertAttention(
          (query): Linear(in_features=64, out_features=64, bias=True)
          (key): Linear(in_features=64, out_features=64, bias=True)
          (value): Linear(in_features=64, out_features=64, bias=True)
          (dropout): Dropout(p=0, inplace=False)
        )
        (output): BertAttOutput(
          (dense): Linear(in_features=64, out_features=64, bias=True)
          (LayerNorm): LayerNorm((64,), eps=1e-05, elementwise_affine=True)
          (dropout): Dropout(p=0.5, inplace=False)
        )
      )
    )
  )
  (mm_proj): Linear(in_features=64, out_features=64, bias=True)
  (cic_content_linear): Linear(in_features=64, out_features=64, bias=True)
  (cic_id_linear): Linear(in_features=64, out_features=64, bias=True)
)
Trainable parameters: 33595840
Tue 09 Jan 2024 18:26:08 INFO epoch 0 training [time: 2.03s, train loss: 33.5986]
Tue 09 Jan 2024 18:26:15 INFO epoch 0 evaluating [time: 3.30s, valid_score: 0.050100]
Tue 09 Jan 2024 18:26:15 INFO valid result: 
recall@5: 0.0199    recall@10: 0.0307    recall@20: 0.0501    recall@50: 0.0960    ndcg@5: 0.0130    ndcg@10: 0.0165    ndcg@20: 0.0214    ndcg@50: 0.0305    precision@5: 0.0042    precision@10: 0.0032    precision@20: 0.0026    precision@50: 0.0020    map@5: 0.0106    map@10: 0.0120    map@20: 0.0133    map@50: 0.0147    
…
Valid: recall@5: 0.0386    recall@10: 0.0632    recall@20: 0.0994    recall@50: 0.1608    ndcg@5: 0.0256    ndcg@10: 0.0336    ndcg@20: 0.0428    ndcg@50: 0.0551    precision@5: 0.0081    precision@10: 0.0066    precision@20: 0.0052    precision@50: 0.0034    map@5: 0.0210    map@10: 0.0243    map@20: 0.0267    map@50: 0.0287    ,
Test: recall@5: 0.0388    recall@10: 0.0637    recall@20: 0.1003    recall@50: 0.1668    ndcg@5: 0.0250    ndcg@10: 0.0332    ndcg@20: 0.0426    ndcg@50: 0.0560    precision@5: 0.0086    precision@10: 0.0070    precision@20: 0.0055    precision@50: 0.0037    map@5: 0.0198    map@10: 0.0231    map@20: 0.0256    map@50: 0.0277    



Tue 09 Jan 2024 18:48:04 INFO =========2/8: Parameters:['hidden_dropout_prob', 'cic_temperature', 'query_num', 'seed']=(0.5, 0.5, 2, 999)=======
Tue 09 Jan 2024 18:48:05 INFO EM3(
  (user_embedding): Embedding(19445, 64)
  (item_id_embedding): Embedding(7050, 64)
  (image_embedding): Embedding(7050, 4096)
  (text_embedding): Embedding(7050, 384)
  (v_linear): Linear(in_features=4096, out_features=64, bias=True)
  (t_linear): Linear(in_features=384, out_features=64, bias=True)
  (fusion): FQFormer(
    (layers): ModuleList(
      (0): SelfattLayer(
        (self): BertAttention(
          (query): Linear(in_features=64, out_features=64, bias=True)
          (key): Linear(in_features=64, out_features=64, bias=True)
          (value): Linear(in_features=64, out_features=64, bias=True)
          (dropout): Dropout(p=0, inplace=False)
        )
        (output): BertAttOutput(
          (dense): Linear(in_features=64, out_features=64, bias=True)
          (LayerNorm): LayerNorm((64,), eps=1e-05, elementwise_affine=True)
          (dropout): Dropout(p=0.5, inplace=False)
        )
      )
    )
  )
  (mm_proj): Linear(in_features=128, out_features=64, bias=True)
  (cic_content_linear): Linear(in_features=64, out_features=64, bias=True)
  (cic_id_linear): Linear(in_features=64, out_features=64, bias=True)
)
Trainable parameters: 33600000
Tue 09 Jan 2024 18:48:06 INFO epoch 0 training [time: 1.66s, train loss: 35.0397]
Tue 09 Jan 2024 18:48:16 INFO epoch 0 evaluating [time: 5.02s, valid_score: 0.049600]
Tue 09 Jan 2024 18:48:16 INFO valid result: 
recall@5: 0.0199    recall@10: 0.0307    recall@20: 0.0496    recall@50: 0.0947    ndcg@5: 0.0130    ndcg@10: 0.0165    ndcg@20: 0.0212    ndcg@50: 0.0302    precision@5: 0.0042    precision@10: 0.0032    precision@20: 0.0026    precision@50: 0.0020    map@5: 0.0105    map@10: 0.0119    map@20: 0.0132    map@50: 0.0146    
…
